data/traces/traced_out_conv_968x1296.pt (torch, 2897 bytes, 2 tensors)

weight f4 [3, 8, 1, 1]
0.12695508 -0.02923135 0.19130868 -0.079609714 -0.23178953 -0.029095251 -0.030025037 0.18100044
0.2941695 -0.0058562197 -0.032009307 -0.09105416 -0.093322374 -0.027635925 -0.0026843322 -0.15375742
0.21509965 0.092527635 -0.18014733 -0.08735377 -0.20191686 0.05820201 0.06836082 0.1498003
00000000: 8300 023e 9676 efbc 6ce6 433e 6b0a a3bd
00000010: 3c5a 6dbe 2a59 eebc 11f7 f5bc 2e58 393e
00000020: 629d 963e 88e5 bfbb 311c 03bd 9a7a babd
00000030: cd1f bfbd bc64 e2bc 9feb 2fbb 9672 1dbe
00000040: 1543 5c3e 217f bd3d 8b78 38be 89e6 b2bd
00000050: 4bc3 4ebe 3b65 6e3d c200 8c3d 4065 193e

bias f4 [3]
-0.07065559 -0.5167064 0.19692895
00000000: e1b3 90bd df46 04bf bea7 493e
